…
Score, and Confusion Matrix"></a>Accuracy, F1 Score, and Confusion Matrix</h3><p>Compare the performance among several deep learning models.</p><h4 id="Simple-RNN-1"><a href="#Simple-RNN-1" class="headerlink" title="Simple RNN"></a>Simple RNN</h4><p>Accuracy:  0.7419<br>F1 Score:  0.7773</p><details><summary>Simple RNN Model Architecture</summary><pre><code>Model: "model_1"_________________________________________________________________Layer (type)                 Output Shape              Param #   =================================================================input_1 (InputLayer)         (None, 64)                0         _________________________________________________________________embedding_1 (Embedding)      (None, 64, 300)           2251500   _________________________________________________________________spatial_dropout1d_1 (Spatial (None, 64, 300)           0         _________________________________________________________________simple_rnn_1 (SimpleRNN)     (None, 64, 50)            17550     _________________________________________________________________simple_rnn_2 (SimpleRNN)     (None, 50)                5050      _________________________________________________________________dropout_1 (Dropout)          (None, 50)                0         _________________________________________________________________dense_1 (Dense)              (None, 1)                 51        _________________________________________________________________activation_1 (Activation)    (None, 1)                 0         =================================================================Total params: 2,274,151Trainable params: 22,651Non-trainable params: 2,251,500_________________________________________________________________</code></pre></details><h4 id="GRU-1"><a href="#GRU-1" class="headerlink" title="GRU"></a>GRU</h4><p>Accuracy:  0.7821<br>F1 Score:  0.8216</p><details><summary>GRU Model Architecture</summary><pre><code>Model: "model_1"_________________________________________________________________Layer (type)                 Output Shape              Param #   =================================================================input_1 (InputLayer)         (None, 64)                0         _________________________________________________________________embedding_1 (Embedding)      (None, 64, 300)           2251500   _________________________________________________________________spatial_dropout1d_1 (Spatial (None, 64, 300)           0         _________________________________________________________________gru_1 (GRU)                  (None, 64, 50)            52650     _________________________________________________________________gru_2 (GRU)                  (None, 50)                15150     _________________________________________________________________dropout_1 (Dropout)          (None, 50)                0         _________________________________________________________________dense_1 (Dense)              (None, 1)                 51        _________________________________________________________________activation_1 (Activation)    (None, 1)                 0         =================================================================Total params: 2,319,351Trainable params: 67,851Non-trainable params: 2,251,500_________________________________________________________________</code></pre></details><h4 id="LSTM-1"><a href="#LSTM-1" class="headerlink" title="LSTM"></a>LSTM</h4><p>Accuracy:  0.7697<br>F1 Score:  0.7945</p><details><summary>LSTM Model Architecture</summary><pre><code>Model: "model_1"_________________________________________________________________Layer (type)                 Output Shape              Param #   =================================================================input_1 (InputLayer)         (None, 64)                0         _________________________________________________________________embedding_1 (Embedding)      (None, 64, 300)           2251500   _________________________________________________________________spatial_dropout1d_1 (Spatial (None, 64, 300)           0         _________________________________________________________________lstm_1 (LSTM)                (None, 64, 64)            93440     _________________________________________________________________lstm_2 (LSTM)                (None, 64)                33024     _________________________________________________________________dropout_1 (Dropout)          (None, 64)                0         _________________________________________________________________dense_1 (Dense)              (None, 1)                 65        _________________________________________________________________activation_1 (Activation)    (None, 1)                 0         =================================================================Total params: 2,378,029Trainable params: 126,529Non-trainable params: 2,251,500_________________________________________________________________</code></pre></details><h4 id="BiLSTM-1"><a href="#BiLSTM-1" class="headerlink" title="BiLSTM"></a>BiLSTM</h4><p>Accuracy:  0.7430<br>F1 Score:  0.7696</p><details><summary>BiLSTM Model Architecture</summary><pre><code>Model: "model_1"_________________________________________________________________Layer (type)                 Output Shape              Param #   =================================================================input_1 (InputLayer)         (None, 64)                0         _________________________________________________________________embedding_1 (Embedding)      (None, 64, 300)           2251500   _________________________________________________________________spatial_dropout1d_1 (Spatial (None, 64, 300)           0         _________________________________________________________________bidirectional_1 (Bidirection (None, 64, 128)           186880    _________________________________________________________________bidirectional_2 (Bidirection (None, 128)               98816     _________________________________________________________________dropout_1 (Dropout)          (None, 128)               0         _________________________________________________________________dense_1 (Dense)              (None, 128)               16512     _________________________________________________________________dropout_2 (Dropout)          (None, 128)               0         _________________________________________________________________dense_2 (Dense)              (None, 1)                 129       _________________________________________________________________activation_1 (Activation)    (None, 1)                 0         =================================================================Total params: 2,553,837Trainable params: 302,337Non-trainable params: 2,251,500_________________________________________________________________</code></pre></details><h4 id="Attention-1"><a href="#Attention-1" class="headerlink" title="Attention"></a>Attention</h4><p>Accuracy:  0.7496<br>F1 Score:  0.7857</p><details><summary>Attention Model Architecture</summary><pre><code>Model: "model_1"_________________________________________________________________Layer (type)                 Output Shape              Param #   =================================================================input_1 (InputLayer)         (None, 64)                0         _________________________________________________________________embedding_1 (Embedding)      (None, 64, 300)           2251500   _________________________________________________________________spatial_dropout1d_1 (Spatial (None, 64, 300)           0         _________________________________________________________________seq_self_attention_1 (SeqSel (None, 64, 300)           77057     _________________________________________________________________seq_self_attention_2 (SeqSel (None, 64, 300)           77057     _________________________________________________________________seq_self_attention_3 (SeqSel (None, 64, 300)           77057     _________________________________________________________________flatten_1 (Flatten)          (None, 19200)             0         _________________________________________________________________dropout_1 (Dropout)          (None, 19200)             0         _________________________________________________________________dense_1 (Dense)              (None, 1)                 19201     _________________________________________________________________activation_1 (Activation)    (None, 1)                 0         =================================================================Total params: 2,501,872Trainable params: 250,372Non-trainable params: 2,251,500_________________________________________________________________</code></pre></details><h4 id="CNN-Static"><a href="#CNN-Static" class="headerlink" title="CNN-Static"></a>CNN-Static</h4><p>Accuracy:  0.7736<br>F1 Score:  0.8031</p><details><summary>CNN-Static Model Architecture</summary><pre><code>Model: "model_1"__________________________________________________________________________________________________Layer (type)                    Output Shape         Param #     Connected to                     ==================================================================================================input_1 (InputLayer)            (None, 64)           0                                            __________________________________________________________________________________________________embedding_1 (Embedding)         (None, 64, 300)      2251500     input_1[0][0]                    __________________________________________________________________________________________________conv1d_1 (Conv1D)               (None, 64, 150)      135150      embedding_1[0][0]                __________________________________________________________________________________________________conv1d_2 (Conv1D)               (None, 64, 150)      180150      embedding_1[0][0]                __________________________________________________________________________________________________conv1d_3 (Conv1D)               (None, 64, 150)      225150      embedding_1[0][0]                __________________________________________________________________________________________________batch_normalization_1 (BatchNor (None, 64, 150)      600         conv1d_1[0][0]                   __________________________________________________________________________________________________batch_normalization_2 (BatchNor (None, 64, 150)      600         conv1d_2[0][0]                   __________________________________________________________________________________________________batch_normalization_3 (BatchNor (None, 64, 150)      600         conv1d_3[0][0]                   __________________________________________________________________________________________________activation_1 (Activation)       (None, 64, 150)      0           batch_normalization_1[0][0]      __________________________________________________________________________________________________activation_2 (Activation)       (None, 64, 150)      0           batch_normalization_2[0][0]      __________________________________________________________________________________________________activation_3 (Activation)       (None, 64, 150)      0           batch_normalization_3[0][0]      __________________________________________________________________________________________________max_pooling1d_1 (MaxPooling1D)  (None, 3, 150)       0           activation_1[0][0]               __________________________________________________________________________________________________max_pooling1d_2 (MaxPooling1D)  (None, 4, 150)       0           activation_2[0][0]               __________________________________________________________________________________________________max_pooling1d_3 (MaxPooling1D)  (None, 5, 150)       0           activation_3[0][0]               __________________________________________________________________________________________________concatenate_1 (Concatenate)     (None, 12, 150)      0           max_pooling1d_1[0][0]                                                                             max_pooling1d_2[0][0]                                                                             max_pooling1d_3[0][0]            __________________________________________________________________________________________________flatten_1 (Flatten)             (None, 1800)         0           concatenate_1[0][0]              __________________________________________________________________________________________________dropout_1 (Dropout)             (None, 1800)         0           flatten_1[0][0]                  __________________________________________________________________________________________________dense_1 (Dense)                 (None, 1)            1801        dropout_1[0][0]                  __________________________________________________________________________________________________activation_4 (Activation)       (None, 1)            0           dense_1[0][0]                    ==================================================================================================Total params: 2,795,551Trainable params: 543,151Non-trainable params: 2,252,400__________________________________________________________________________________________________</code></pre></details><h4 id="CNN-MultiChannel"><a href="#CNN-MultiChannel" class="headerlink" title="CNN-MultiChannel"></a>CNN-MultiChannel</h4><p>Accuracy:  0.7744<br>F1 Score:  0.8073</p><details><summary>CNN-MultiChannel Model Architecture</summary><pre><code>Model: "model_1"__________________________________________________________________________________________________Layer (type)                    Output Shape         Param #     Connected to                     ==================================================================================================input_1 (InputLayer)            (None, 64)           0                                            __________________________________________________________________________________________________input_2 (InputLayer)            (None, 64)           0                                            __________________________________________________________________________________________________input_3 (InputLayer)            (None, 64)           0                                            __________________________________________________________________________________________________embedding_1 (Embedding)         (None, 64, 300)      2251500     input_1[0][0]                    __________________________________________________________________________________________________embedding_2 (Embedding)         (None, 64, 300)      2251500     input_2[0][0]                    __________________________________________________________________________________________________embedding_3 (Embedding)         (None, 64, 300)      2251500     input_3[0][0]                    __________________________________________________________________________________________________conv1d_1 (Conv1D)               (None, 64, 150)      135150      embedding_1[0][0]                __________________________________________________________________________________________________conv1d_2 (Conv1D)               (None, 64, 150)      135150      embedding_2[0][0]                __________________________________________________________________________________________________conv1d_3 (Conv1D)               (None, 64, 150)      135150      embedding_3[0][0]                __________________________________________________________________________________________________batch_normalization_1 (BatchNor (None, 64, 150)      600         conv1d_1[0][0]                   __________________________________________________________________________________________________batch_normalization_2 (BatchNor (None, 64, 150)      600         conv1d_2[0][0]                   __________________________________________________________________________________________________batch_normalization_3 (BatchNor (None, 64, 150)      600         conv1d_3[0][0]                   __________________________________________________________________________________________________activation_1 (Activation)       (None, 64, 150)      0           batch_normalization_1[0][0]      __________________________________________________________________________________________________activation_2 (Activation)       (None, 64, 150)      0           batch_normalization_2[0][0]      __________________________________________________________________________________________________activation_3 (Activation)       (None, 64, 150)      0           batch_normalization_3[0][0]      __________________________________________________________________________________________________max_pooling1d_1 (MaxPooling1D)  (None, 3, 150)       0           activation_1[0][0]               __________________________________________________________________________________________________max_pooling1d_2 (MaxPooling1D)  (None, 3, 150)       0           activation_2[0][0]               __________________________________________________________________________________________________max_pooling1d_3 (MaxPooling1D)  (None, 3, 150)       0           activation_3[0][0]               __________________________________________________________________________________________________flatten_1 (Flatten)             (None, 450)          0           max_pooling1d_1[0][0]            __________________________________________________________________________________________________flatten_2 (Flatten)             (None, 450)          0           max_pooling1d_2[0][0]            __________________________________________________________________________________________________flatten_3 (Flatten)             (None, 450)          0           max_pooling1d_3[0][0]            __________________________________________________________________________________________________concatenate_1 (Concatenate)     (None, 1350)         0           flatten_1[0][0]                                                                                   flatten_2[0][0]                                                                                   flatten_3[0][0]                  __________________________________________________________________________________________________dense_1 (Dense)                 (None, 100)          135100      concatenate_1[0][0]              __________________________________________________________________________________________________activation_4 (Activation)       (None, 100)          0           dense_1[0][0]                    __________________________________________________________________________________________________dropout_1 (Dropout)             (None, 100)          0           activation_4[0][0]               __________________________________________________________________________________________________dense_2 (Dense)                 (None, 1)            101         dropout_1[0][0]                  __________________________________________________________________________________________________activation_5 (Activation)       (None, 1)            0           dense_2[0][0]                    ==================================================================================================Total params: 7,296,951Trainable params: 541,551Non-trainable params: 6,755,400__________________________________________________________________________________________________</code></pre></details><h4 id="CNN-LSTM-1"><a href="#CNN-LSTM-1" class="headerlink" title="CNN-LSTM"></a>CNN-LSTM</h4><p>Accuracy:  0.7380<br>F1 Score:  0.7785</p><details><summary>CNN-LSTM Model Architecture</summary><pre><code>Model: "model_1"_________________________________________________________________Layer (type)                 Output Shape              Param #   =================================================================input_1 (InputLayer)         (None, 64)                0         _________________________________________________________________embedding_1 (Embedding)      (None, 64, 300)           2251500   _________________________________________________________________spatial_dropout1d_1 (Spatial (None, 64, 300)           0         _________________________________________________________________conv1d_1 (Conv1D)            (None, 64, 150)           135150    _________________________________________________________________batch_normalization_1 (Batch (None, 64, 150)           600       _________________________________________________________________activation_1 (Activation)    (None, 64, 150)           0         _________________________________________________________________max_pooling1d_1 (MaxPooling1 (None, 32, 150)           0         _________________________________________________________________conv1d_2 (Conv1D)            (None, 32, 300)           135300    _________________________________________________________________batch_normalization_2 (Batch (None, 32, 300)           1200      _________________________________________________________________activation_2 (Activation)    (None, 32, 300)           0         _________________________________________________________________max_pooling1d_2 (MaxPooling1 (None, 16, 300)           0         _________________________________________________________________conv1d_3 (Conv1D)            (None, 16, 600)           540600    _________________________________________________________________batch_normalization_3 (Batch (None, 16, 600)           2400      _________________________________________________________________activation_3 (Activation)    (None, 16, 600)           0         _________________________________________________________________max_pooling1d_3 (MaxPooling1 (None, 8, 600)            0         _________________________________________________________________lstm_1 (LSTM)                (None, 8, 64)             170240    _________________________________________________________________seq_self_attention_1 (SeqSel (None, 8, 64)             8321      _________________________________________________________________flatten_1 (Flatten)          (None, 512)               0         _________________________________________________________________dense_1 (Dense)              (None, 128)               65664     _________________________________________________________________dropout_1 (Dropout)          (None, 128)               0         _________________________________________________________________dense_2 (Dense)              (None, 1)                 129       _________________________________________________________________activation_4 (Activation)    (None, 1)                 0         =================================================================Total params: 3,311,104Trainable params: 1,057,504Non-trainable params: 2,253,600_________________________________________________________________</code></pre></details><h4 id="Text-ResNet-1"><a href="#Text-ResNet-1" class="headerlink" title="Text-ResNet"></a>Text-ResNet</h4><p>Accuracy:  0.7283<br>F1 Score:  0.7535</p><details><summary>Text-ResNet Model Architecture</summary><pre><code>Model: "model_1"__________________________________________________________________________________________________Layer (type)                    Output Shape         Param #     Connected to                     ==================================================================================================input_1 (InputLayer)            (None, 64)           0                                            __________________________________________________________________________________________________embedding_1 (Embedding)         (None, 64, 300)      2251500     input_1[0][0]                    __________________________________________________________________________________________________spatial_dropout1d_1 (SpatialDro (None, 64, 300)      0           embedding_1[0][0]                __________________________________________________________________________________________________conv1d_1 (Conv1D)               (None, 31, 64)       57664       spatial_dropout1d_1[0][0]        __________________________________________________________________________________________________batch_normalization_1 (BatchNor (None, 31, 64)       256         conv1d_1[0][0]                   __________________________________________________________________________________________________activation_1 (Activation)       (None, 31, 64)       0           batch_normalization_1[0][0]      __________________________________________________________________________________________________max_pooling1d_1 (MaxPooling1D)  (None, 15, 64)       0           activation_1[0][0]               __________________________________________________________________________________________________conv1d_2 (Conv1D)               (None, 15, 64)       20544       max_pooling1d_1[0][0]            __________________________________________________________________________________________________batch_normalization_2 (BatchNor (None, 15, 64)       256         conv1d_2[0][0]                   __________________________________________________________________________________________________activation_2 (Activation)       (None, 15, 64)       0           batch_normalization_2[0][0]      __________________________________________________________________________________________________conv1d_3 (Conv1D)               (None, 15, 64)       20544       activation_2[0][0]               __________________________________________________________________________________________________batch_normalization_3 (BatchNor (None, 15, 64)       256         conv1d_3[0][0]                   __________________________________________________________________________________________________activation_3 (Activation)       (None, 15, 64)       0           batch_normalization_3[0][0]      __________________________________________________________________________________________________conv1d_5 (Conv1D)               (None, 15, 64)       20544       max_pooling1d_1[0][0]            __________________________________________________________________________________________________conv1d_4 (Conv1D)               (None, 15, 64)       20544       activation_3[0][0]               __________________________________________________________________________________________________batch_normalization_5 (BatchNor (None, 15, 64)       256         conv1d_5[0][0]                   __________________________________________________________________________________________________batch_normalization_4 (BatchNor (None, 15, 64)       256         conv1d_4[0][0]                   __________________________________________________________________________________________________add_1 (Add)                     (None, 15, 64)       0           batch_normalization_5[0][0]                                                                       batch_normalization_4[0][0]      __________________________________________________________________________________________________activation_4 (Activation)       (None, 15, 64)       0           add_1[0][0]                      __________________________________________________________________________________________________conv1d_6 (Conv1D)               (None, 15, 64)       20544       activation_4[0][0]               __________________________________________________________________________________________________batch_normalization_6 (BatchNor (None, 15, 64)       256         conv1d_6[0][0]                   __________________________________________________________________________________________________activation_5 (Activation)       (None, 15, 64)       0           batch_normalization_6[0][0]      __________________________________________________________________________________________________conv1d_7 (Conv1D)               (None, 15, 64)       20544       activation_5[0][0]               __________________________________________________________________________________________________batch_normalization_7 (BatchNor (None, 15, 64)       256         conv1d_7[0][0]                   __________________________________________________________________________________________________activation_6 (Activation)       (None, 15, 64)       0           batch_normalization_7[0][0]      __________________________________________________________________________________________________conv1d_8 (Conv1D)               (None, 15, 64)       20544       activation_6[0][0]               __________________________________________________________________________________________________batch_normalization_8 (BatchNor (None, 15, 64)       256         conv1d_8[0][0]                   __________________________________________________________________________________________________add_2 (Add)                     (None, 15, 64)       0           activation_4[0][0]                                                                                batch_normalization_8[0][0]      __________________________________________________________________________________________________activation_7 (Activation)       (None, 15, 64)       0           add_2[0][0]                      __________________________________________________________________________________________________conv1d_9 (Conv1D)               (None, 15, 64)       20544       activation_7[0][0]               __________________________________________________________________________________________________batch_normalization_9 (BatchNor (None, 15, 64)       256         conv1d_9[0][0]                   __________________________________________________________________________________________________activation_8 (Activation)       (None, 15, 64)       0           batch_normalization_9[0][0]      __________________________________________________________________________________________________conv1d_10 (Conv1D)              (None, 15, 64)       20544       activation_8[0][0]               __________________________________________________________________________________________________batch_normalization_10 (BatchNo (None, 15, 64)       256         conv1d_10[0][0]                  __________________________________________________________________________________________________activation_9 (Activation)       (None, 15, 64)       0           batch_normalization_10[0][0]     __________________________________________________________________________________________________conv1d_11 (Conv1D)              (None, 15, 64)       20544       activation_9[0][0]               __________________________________________________________________________________________________batch_normalization_11 (BatchNo (None, 15, 64)       256         conv1d_11[0][0]                  __________________________________________________________________________________________________add_3 (Add)                     (None, 15, 64)       0           activation_7[0][0]                                                                                batch_normalization_11[0][0]     __________________________________________________________________________________________________activation_10 (Activation)      (None, 15, 64)       0           add_3[0][0]                      __________________________________________________________________________________________________conv1d_12 (Conv1D)              (None, 15, 128)      41088       activation_10[0][0]              __________________________________________________________________________________________________batch_normalization_12 (BatchNo (None, 15, 128)      512         conv1d_12[0][0]                  __________________________________________________________________________________________________activation_11 (Activation)      (None, 15, 128)      0           batch_normalization_12[0][0]     __________________________________________________________________________________________________conv1d_13 (Conv1D)              (None, 15, 128)      82048       activation_11[0][0]              __________________________________________________________________________________________________batch_normalization_13 (BatchNo (None, 15, 128)      512         conv1d_13[0][0]                  __________________________________________________________________________________________________activation_12 (Activation)      (None, 15, 128)      0           batch_normalization_13[0][0]     __________________________________________________________________________________________________conv1d_15 (Conv1D)              (None, 15, 128)      41088       activation_10[0][0]              __________________________________________________________________________________________________conv1d_14 (Conv1D)              (None, 15, 128)      82048       activation_12[0][0]              __________________________________________________________________________________________________batch_normalization_15 (BatchNo (None, 15, 128)      512         conv1d_15[0][0]                  __________________________________________________________________________________________________batch_normalization_14 (BatchNo (None, 15, 128)      512         conv1d_14[0][0]                  __________________________________________________________________________________________________add_4 (Add)                     (None, 15, 128)      0           batch_normalization_15[0][0]                                                                      batch_normalization_14[0][0]     __________________________________________________________________________________________________activation_13 (Activation)      (None, 15, 128)      0           add_4[0][0]                      __________________________________________________________________________________________________conv1d_16 (Conv1D)              (None, 15, 128)      82048       activation_13[0][0]              __________________________________________________________________________________________________batch_normalization_16 (BatchNo (None, 15, 128)      512         conv1d_16[0][0]                  __________________________________________________________________________________________________activation_14 (Activation)      (None, 15, 128)      0           batch_normalization_16[0][0]     __________________________________________________________________________________________________conv1d_17 (Conv1D)              (None, 15, 128)      82048       activation_14[0][0]              __________________________________________________________________________________________________batch_normalization_17 (BatchNo (None, 15, 128)      512         conv1d_17[0][0]                  __________________________________________________________________________________________________activation_15 (Activation)      (None, 15, 128)      0           batch_normalization_17[0][0]     __________________________________________________________________________________________________conv1d_18 (Conv1D)              (None, 15, 128)      82048       activation_15[0][0]              __________________________________________________________________________________________________batch_normalization_18 (BatchNo (None, 15, 128)      512         conv1d_18[0][0]                  __________________________________________________________________________________________________add_5 (Add)                     (None, 15, 128)      0           activation_13[0][0]                                                                               batch_normalization_18[0][0]     __________________________________________________________________________________________________activation_16 (Activation)      (None, 15, 128)      0           add_5[0][0]                      __________________________________________________________________________________________________conv1d_19 (Conv1D)              (None, 15, 128)      82048       activation_16[0][0]              __________________________________________________________________________________________________batch_normalization_19 (BatchNo (None, 15, 128)      512         conv1d_19[0][0]                  __________________________________________________________________________________________________activation_17 (Activation)      (None, 15, 128)      0           batch_normalization_19[0][0]     __________________________________________________________________________________________________conv1d_20 (Conv1D)              (None, 15, 128)      82048       activation_17[0][0]              __________________________________________________________________________________________________batch_normalization_20 (BatchNo (None, 15, 128)      512         conv1d_20[0][0]                  __________________________________________________________________________________________________activation_18 (Activation)      (None, 15, 128)      0           batch_normalization_20[0][0]     __________________________________________________________________________________________________conv1d_21 (Conv1D)              (None, 15, 128)      82048       activation_18[0][0]              __________________________________________________________________________________________________batch_normalization_21 (BatchNo (None, 15, 128)      512         conv1d_21[0][0]                  __________________________________________________________________________________________________add_6 (Add)                     (None, 15, 128)      0           activation_16[0][0]                                                                               batch_normalization_21[0][0]     __________________________________________________________________________________________________activation_19 (Activation)      (None, 15, 128)      0           add_6[0][0]                      __________________________________________________________________________________________________conv1d_22 (Conv1D)              (None, 15, 128)      82048       activation_19[0][0]              __________________________________________________________________________________________________batch_normalization_22 (BatchNo (None, 15, 128)      512         conv1d_22[0][0]                  __________________________________________________________________________________________________activation_20 (Activation)      (None, 15, 128)      0           batch_normalization_22[0][0]     __________________________________________________________________________________________________conv1d_23 (Conv1D)              (None, 15, 128)      82048       activation_20[0][0]              __________________________________________________________________________________________________batch_normalization_23 (BatchNo (None, 15, 128)      512         conv1d_23[0][0]                  __________________________________________________________________________________________________activation_21 (Activation)      (None, 15, 128)      0           batch_normalization_23[0][0]     __________________________________________________________________________________________________conv1d_24 (Conv1D)              (None, 15, 128)      82048       activation_21[0][0]              __________________________________________________________________________________________________batch_normalization_24 (BatchNo (None, 15, 128)      512         conv1d_24[0][0]                  __________________________________________________________________________________________________add_7 (Add)                     (None, 15, 128)      0           activation_19[0][0]                                                                               batch_normalization_24[0][0]     __________________________________________________________________________________________________activation_22 (Activation)      (None, 15, 128)      0           add_7[0][0]                      __________________________________________________________________________________________________conv1d_25 (Conv1D)              (None, 15, 256)      164096      activation_22[0][0]              __________________________________________________________________________________________________batch_normalization_25 (BatchNo (None, 15, 256)      1024        conv1d_25[0][0]                  __________________________________________________________________________________________________activation_23 (Activation)      (None, 15, 256)      0           batch_normalization_25[0][0]     __________________________________________________________________________________________________conv1d_26 (Conv1D)              (None, 15, 256)      327936      activation_23[0][0]              __________________________________________________________________________________________________batch_normalization_26 (BatchNo (None, 15, 256)      1024        conv1d_26[0][0]                  __________________________________________________________________________________________________activation_24 (Activation)      (None, 15, 256)      0           batch_normalization_26[0][0]     __________________________________________________________________________________________________conv1d_28 (Conv1D)              (None, 15, 256)      164096      activation_22[0][0]              __________________________________________________________________________________________________conv1d_27 (Conv1D)              (None, 15, 256)      327936      activation_24[0][0]              __________________________________________________________________________________________________batch_normalization_28 (BatchNo (None, 15, 256)      1024        conv1d_28[0][0]                  __________________________________________________________________________________________________batch_normalization_27 (BatchNo (None, 15, 256)      1024        conv1d_27[0][0]                  __________________________________________________________________________________________________add_8 (Add)                     (None, 15, 256)      0           batch_normalization_28[0][0]                                                                      batch_normalization_27[0][0]     __________________________________________________________________________________________________activation_25 (Activation)      (None, 15, 256)      0           add_8[0][0]                      __________________________________________________________________________________________________conv1d_29 (Conv1D)              (None, 15, 256)      327936      activation_25[0][0]              __________________________________________________________________________________________________batch_normalization_29 (BatchNo (None, 15, 256)      1024        conv1d_29[0][0]                  __________________________________________________________________________________________________activation_26 (Activation)      (None, 15, 256)      0           batch_normalization_29[0][0]     __________________________________________________________________________________________________conv1d_30 (Conv1D)              (None, 15, 256)      327936      activation_26[0][0]              __________________________________________________________________________________________________batch_normalization_30 (BatchNo (None, 15, 256)      1024        conv1d_30[0][0]                  __________________________________________________________________________________________________activation_27 (Activation)      (None, 15, 256)      0           batch_normalization_30[0][0]     __________________________________________________________________________________________________conv1d_31 (Conv1D)              (None, 15, 256)      327936      activation_27[0][0]              __________________________________________________________________________________________________batch_normalization_31 (BatchNo (None, 15, 256)      1024        conv1d_31[0][0]                  __________________________________________________________________________________________________add_9 (Add)                     (None, 15, 256)      0           activation_25[0][0]                                                                               batch_normalization_31[0][0]     __________________________________________________________________________________________________activation_28 (Activation)      (None, 15, 256)      0           add_9[0][0]                      __________________________________________________________________________________________________conv1d_32 (Conv1D)              (None, 15, 256)      327936      activation_28[0][0]              __________________________________________________________________________________________________batch_normalization_32 (BatchNo (None, 15, 256)      1024        conv1d_32[0][0]                  __________________________________________________________________________________________________activation_29 (Activation)      (None, 15, 256)      0           batch_normalization_32[0][0]     __________________________________________________________________________________________________conv1d_33 (Conv1D)              (None, 15, 256)      327936      activation_29[0][0]              __________________________________________________________________________________________________batch_normalization_33 (BatchNo (None, 15, 256)      1024        conv1d_33[0][0]                  __________________________________________________________________________________________________activation_30 (Activation)      (None, 15, 256)      0           batch_normalization_33[0][0]     __________________________________________________________________________________________________conv1d_34 (Conv1D)              (None, 15, 256)      327936      activation_30[0][0]              __________________________________________________________________________________________________batch_normalization_34 (BatchNo (None, 15, 256)      1024        conv1d_34[0][0]                  __________________________________________________________________________________________________add_10 (Add)                    (None, 15, 256)      0           activation_28[0][0]                                                                               batch_normalization_34[0][0]     __________________________________________________________________________________________________activation_31 (Activation)      (None, 15, 256)      0           add_10[0][0]                     __________________________________________________________________________________________________conv1d_35 (Conv1D)              (None, 15, 256)      327936      activation_31[0][0]              __________________________________________________________________________________________________batch_normalization_35 (BatchNo (None, 15, 256)      1024        conv1d_35[0][0]                  __________________________________________________________________________________________________activation_32 (Activation)      (None, 15, 256)      0           batch_normalization_35[0][0]     __________________________________________________________________________________________________conv1d_36 (Conv1D)              (None, 15, 256)      327936      activation_32[0][0]              __________________________________________________________________________________________________batch_normalization_36 (BatchNo (None, 15, 256)      1024        conv1d_36[0][0]                  __________________________________________________________________________________________________activation_33 (Activation)      (None, 15, 256)      0           batch_normalization_36[0][0]     __________________________________________________________________________________________________conv1d_37 (Conv1D)              (None, 15, 256)      327936      activation_33[0][0]              __________________________________________________________________________________________________batch_normalization_37 (BatchNo (None, 15, 256)      1024        conv1d_37[0][0]                  __________________________________________________________________________________________________add_11 (Add)                    (None, 15, 256)      0           activation_31[0][0]                                                                               batch_normalization_37[0][0]     __________________________________________________________________________________________________activation_34 (Activation)      (None, 15, 256)      0           add_11[0][0]                     __________________________________________________________________________________________________conv1d_38 (Conv1D)              (None, 15, 256)      327936      activation_34[0][0]              __________________________________________________________________________________________________batch_normalization_38 (BatchNo (None, 15, 256)      1024        conv1d_38[0][0]                  __________________________________________________________________________________________________activation_35 (Activation)      (None, 15, 256)      0           batch_normalization_38[0][0]     __________________________________________________________________________________________________conv1d_39 (Conv1D)              (None, 15, 256)      327936      activation_35[0][0]              __________________________________________________________________________________________________batch_normalization_39 (BatchNo (None, 15, 256)      1024        conv1d_39[0][0]                  __________________________________________________________________________________________________activation_36 (Activation)      (None, 15, 256)      0           batch_normalization_39[0][0]     __________________________________________________________________________________________________conv1d_40 (Conv1D)              (None, 15, 256)      327936      activation_36[0][0]              __________________________________________________________________________________________________batch_normalization_40 (BatchNo (None, 15, 256)      1024        conv1d_40[0][0]                  __________________________________________________________________________________________________add_12 (Add)                    (None, 15, 256)      0           activation_34[0][0]                                                                               batch_normalization_40[0][0]     __________________________________________________________________________________________________activation_37 (Activation)      (None, 15, 256)      0           add_12[0][0]                     __________________________________________________________________________________________________conv1d_41 (Conv1D)              (None, 15, 256)      327936      activation_37[0][0]              __________________________________________________________________________________________________batch_normalization_41 (BatchNo (None, 15, 256)      1024        conv1d_41[0][0]                  __________________________________________________________________________________________________activation_38 (Activation)      (None, 15, 256)      0           batch_normalization_41[0][0]     __________________________________________________________________________________________________conv1d_42 (Conv1D)              (None, 15, 256)      327936      activation_38[0][0]              __________________________________________________________________________________________________batch_normalization_42 (BatchNo (None, 15, 256)      1024        conv1d_42[0][0]                  __________________________________________________________________________________________________activation_39 (Activation)      (None, 15, 256)      0           batch_normalization_42[0][0]     __________________________________________________________________________________________________conv1d_43 (Conv1D)              (None, 15, 256)      327936      activation_39[0][0]              __________________________________________________________________________________________________batch_normalization_43 (BatchNo (None, 15, 256)      1024        conv1d_43[0][0]                  __________________________________________________________________________________________________add_13 (Add)                    (None, 15, 256)      0           activation_37[0][0]                                                                               batch_normalization_43[0][0]     __________________________________________________________________________________________________activation_40 (Activation)      (None, 15, 256)      0           add_13[0][0]                     __________________________________________________________________________________________________conv1d_44 (Conv1D)              (None, 15, 512)      655872      activation_40[0][0]              __________________________________________________________________________________________________batch_normalization_44 (BatchNo (None, 15, 512)      2048        conv1d_44[0][0]                  __________________________________________________________________________________________________activation_41 (Activation)      (None, 15, 512)      0           batch_normalization_44[0][0]     __________________________________________________________________________________________________conv1d_45 (Conv1D)              (None, 15, 512)      1311232     activation_41[0][0]              __________________________________________________________________________________________________batch_normalization_45 (BatchNo (None, 15, 512)      2048        conv1d_45[0][0]                  __________________________________________________________________________________________________activation_42 (Activation)      (None, 15, 512)      0           batch_normalization_45[0][0]     __________________________________________________________________________________________________conv1d_47 (Conv1D)              (None, 15, 512)      655872      activation_40[0][0]              __________________________________________________________________________________________________conv1d_46 (Conv1D)              (None, 15, 512)      1311232     activation_42[0][0]              __________________________________________________________________________________________________batch_normalization_47 (BatchNo (None, 15, 512)      2048        conv1d_47[0][0]                  __________________________________________________________________________________________________batch_normalization_46 (BatchNo (None, 15, 512)      2048        conv1d_46[0][0]                  __________________________________________________________________________________________________add_14 (Add)                    (None, 15, 512)      0           batch_normalization_47[0][0]                                                                      batch_normalization_46[0][0]     __________________________________________________________________________________________________activation_43 (Activation)      (None, 15, 512)      0           add_14[0][0]                     __________________________________________________________________________________________________conv1d_48 (Conv1D)              (None, 15, 512)      1311232     activation_43[0][0]              __________________________________________________________________________________________________batch_normalization_48 (BatchNo (None, 15, 512)      2048        conv1d_48[0][0]                  __________________________________________________________________________________________________activation_44 (Activation)      (None, 15, 512)      0           batch_normalization_48[0][0]     __________________________________________________________________________________________________conv1d_49 (Conv1D)              (None, 15, 512)      1311232     activation_44[0][0]              __________________________________________________________________________________________________batch_normalization_49 (BatchNo (None, 15, 512)      2048        conv1d_49[0][0]                  __________________________________________________________________________________________________activation_45 (Activation)      (None, 15, 512)      0           batch_normalization_49[0][0]     __________________________________________________________________________________________________conv1d_50 (Conv1D)              (None, 15, 512)      1311232     activation_45[0][0]              __________________________________________________________________________________________________batch_normalization_50 (BatchNo (None, 15, 512)      2048        conv1d_50[0][0]                  __________________________________________________________________________________________________add_15 (Add)                    (None, 15, 512)      0           activation_43[0][0]                                                                               batch_normalization_50[0][0]     __________________________________________________________________________________________________activation_46 (Activation)      (None, 15, 512)      0           add_15[0][0]                     __________________________________________________________________________________________________conv1d_51 (Conv1D)              (None, 15, 512)      1311232     activation_46[0][0]              __________________________________________________________________________________________________batch_normalization_51 (BatchNo (None, 15, 512)      2048        conv1d_51[0][0]                  __________________________________________________________________________________________________activation_47 (Activation)      (None, 15, 512)      0           batch_normalization_51[0][0]     __________________________________________________________________________________________________conv1d_52 (Conv1D)              (None, 15, 512)      1311232     activation_47[0][0]              __________________________________________________________________________________________________batch_normalization_52 (BatchNo (None, 15, 512)      2048        conv1d_52[0][0]                  __________________________________________________________________________________________________activation_48 (Activation)      (None, 15, 512)      0           batch_normalization_52[0][0]     __________________________________________________________________________________________________conv1d_53 (Conv1D)              (None, 15, 512)      1311232     activation_48[0][0]              __________________________________________________________________________________________________batch_normalization_53 (BatchNo (None, 15, 512)      2048        conv1d_53[0][0]                  __________________________________________________________________________________________________add_16 (Add)                    (None, 15, 512)      0           activation_46[0][0]                                                                               batch_normalization_53[0][0]     __________________________________________________________________________________________________activation_49 (Activation)      (None, 15, 512)      0           add_16[0][0]                     __________________________________________________________________________________________________average_pooling1d_1 (AveragePoo (None, 15, 512)      0           activation_49[0][0]              __________________________________________________________________________________________________flatten_1 (Flatten)             (None, 7680)         0           average_pooling1d_1[0][0]        __________________________________________________________________________________________________dense_1 (Dense)                 (None, 1024)         7865344     flatten_1[0][0]                  __________________________________________________________________________________________________dropout_1 (Dropout)             (None, 1024)         0           dense_1[0][0]                    __________________________________________________________________________________________________dense_2 (Dense)                 (None, 1024)         1049600     dropout_1[0][0]                  __________________________________________________________________________________________________dense_3 (Dense)                 (None, 1)            1025        dense_2[0][0]                    __________________________________________________________________________________________________batch_normalization_54 (BatchNo (None, 1)            4           dense_3[0][0]                    __________________________________________________________________________________________________activation_50 (Activation)      (None, 1)            0           batch_normalization_54[0][0]     ==================================================================================================Total params: 30,169,393Trainable params: 27,893,187Non-trainable params: 2,276,206__________________________________________________________________________________________________</code></pre></details><h2 id="Performance"><a href="#Performance" class="hea
…
